test/example_fish_model.npz (npz, 6754 bytes, 21 tensors)

shift_mean f8 [4]
000000 97 f6 b1 e6 84 3d ae 3e 21 91 4a 60 7b d9 21 bf
       9.012314427095605e-07 -0.00013618117386216772
000010 da ea 1a 86 15 76 78 3f 78 fb 81 b1 f9 c6 ce 3f
       0.005971988751918922 0.24044724624033242

shift_std f8 [4]
000000 a9 36 4e 37 fb a9 68 3e bc 76 8a 4e f3 12 ef be
       4.594026040755334e-08 -1.4817249806949185e-05
000010 d5 16 67 95 45 f3 4e 3f 24 29 60 bb e9 42 cf 3f
       0.0009445276035015779 0.24422952317429136

nhm_vs_dist_mean f8 []
000000 9d b2 b7 ad fe 83 2c bf
       -0.0002175567995971365

nhm_vs_dist_var f8 []
000000 c8 41 ef 41 83 c7 d2 3f
       0.2934272903339914

nhm_vs_incident_height f8 [2]
000000 d5 e1 eb d0 d1 1b 08 bf 70 8f 5c d8 91 d2 1c 40
       -4.598363931579737e-05 7.205634480142052

cv_n_hits f8 [13]
000000 8a c6 88 77 00 50 45 c0 6e 1c 30 ae 80 6e f8 bf
       -42.62501424959653 -1.52697818796312
000010 8a 04 cb bd fd 84 5b 40 5b e2 5e f2 95 77 10 40
       110.0779871447177 4.116782938996574
000020 3c e5 c8 0e 3b 85 57 c0 f9 41 84 e2 05 2e 10 c0
       -94.08172959917732 -4.04494432384717
000030 9c 26 f6 71 06 c6 35 40 6a 51 e1 90 5f cc fb 3f
       21.773535845370688 1.7373958262806704
000040 89 23 5f 42 9f bb 21 40 15 1d 21 72 bb 1c d3 bf
       8.866449426759361 -0.2986286749405321
000050 b3 b5 3a 30 67 65 12 c0 c8 d2 29 d1 9d e5 88 3f
       -4.599026444991455 0.012156708665523111
000060 35 e3 79 87 c9 5c df 3f
       0.49003828268137123

me_mu f8 [2]
000000 e1 fb 3e 5a 8c d1 84 bf 93 19 7e 75 99 0c 00 40
       -0.010165306572046564 2.0061520747287402

me_beta f8 [2]
000000 d8 96 cf 4d a0 be 34 bf 3d 2e 68 3f 49 26 d4 3f
       -0.000316537987428906 0.3148367995461035

me_height f8 [2]
000000 86 f2 4d af 36 0a 74 3f 30 be ff 76 be d9 eb 3f
       0.004892552959856139 0.8703300785254608

me_lift f8 [2]
000000 dc f1 81 a1 26 f9 21 bf 8c 3c ff 6b 63 74 ec 3f
       -0.00013712498253316732 0.8892075642887831

cv_energy f8 [13]
000000 c5 41 59 8f 4d d5 4b c0 41 51 4e 92 ac ac d7 3f
       -55.66642944200752 0.3699141911286184
000010 9e 7c 04 9a c6 0b 63 40 41 4e f3 55 95 64 f0 bf
       152.36799336315465 -1.0245564801633835
000020 7d 04 50 13 8b 71 62 c0 d6 ef 15 6c 29 ca f0 3f
       -147.54822698238777 1.0493559095475482
000030 39 b8 38 2e ce 78 4b 40 65 26 9c 2b b9 f6 de bf
       54.9437921311332 -0.4838087964895748
000040 ca 11 47 13 6d 67 f8 bf 19 15 a5 8c 33 94 b8 3f
       -1.5252505066902011 0.09601137336456524
000050 f5 e9 65 6f 6c ca 08 c0 48 4e db 53 ef 91 78 bf
       -3.0988396361328747 -0.005998549340535293
000060 18 d3 9f 81 e6 b0 da 3f
       0.41704714449524394

sewe_vs_incident f8 [2]
000000 1d 29 d0 05 27 dc 06 3f 47 39 7b 6e 91 2b c2 3f
       4.360193336346212e-05 0.14195459265324414

sewe_vs_dist_mu f8 []
000000 c6 53 fd 72 cb 67 7e 3f
       0.007423205111838754

sewe_vs_dist_beta f8 []
000000 e4 c7 7b 78 9b c7 e2 3f
       0.5868661263650634

sewe_vs_dist_height f8 []
000000 f2 c6 f2 14 c1 f9 31 40
       17.975602444907913

sewe_vs_dist_lift f8 []
000000 fd ff ff ff ff ff 13 c0
       -4.999999999999997

radial_vs_dist_core f8 [3]
000000 bf a9 65 b1 41 b3 3b bf 51 48 45 12 1f 09 e9 be
       -0.0004226718314358744 -1.1937918835389914e-05
000010 5f ef b2 f5 65 c6 40 3f
       0.0005119321680448866

radial_vs_dist_to_tail f8 [3]
000000 e1 62 9b ed 73 26 f0 3f 6e 37 83 5b d9 d1 69 3f
       1.009387901451355 0.003151821638403377
000010 a1 b8 45 71 29 ef fb 3f
       1.7458891319943535

radial_vs_dist_p_core f8 [3]
000000 a3 aa 93 5d 44 ee 92 3f 83 ca ab 96 28 c8 18 bf
       0.018487041675067883 -9.45353291788385e-05
000010 42 be 48 c0 2d ec ed 3f
       0.9350804095792642

incident_centers f8 [15]
000000 00 00 00 00 00 00 29 40 00 00 00 00 00 80 31 40
       12.5 17.5
000010 00 00 00 00 00 80 36 40 00 00 00 00 00 80 3b 40
       22.5 27.5
000020 00 00 00 00 00 40 40 40 00 00 00 00 00 c0 42 40
       32.5 37.5
000030 00 00 00 00 00 40 45 40 00 00 00 00 00 c0 47 40
       42.5 47.5
000040 00 00 00 00 00 40 4a 40 00 00 00 00 00 c0 4c 40
       52.5 57.5
000050 00 00 00 00 00 40 4f 40 00 00 00 00 00 e0 50 40
       62.5 67.5
000060 00 00 00 00 00 20 52 40 00 00 00 00 00 60 53 40
       72.5 77.5
000070 00 00 00 00 00 a0 54 40
       82.5

distance_centers f8 [50]
000000 5c 8f c2 f5 28 5c ef bf 14 ae 47 e1 7a 14 ee bf
       -0.98 -0.94
000010 cd cc cc cc cc cc ec bf 85 eb 51 b8 1e 85 eb bf
       -0.9 -0.86
000020 3e 0a d7 a3 70 3d ea bf f6 28 5c 8f c2 f5 e8 bf
       -0.8200000000000001 -0.78
000030 ae 47 e1 7a 14 ae e7 bf 66 66 66 66 66 66 e6 bf
       -0.74 -0.7
000040 1e 85 eb 51 b8 1e e5 bf d7 a3 70 3d 0a d7 e3 bf
       -0.6599999999999999 -0.62
000050 90 c2 f5 28 5c 8f e2 bf 48 e1 7a 14 ae 47 e1 bf
       -0.5800000000000001 -0.54
000060 00 00 00 00 00 00 e0 bf 70 3d 0a d7 a3 70 dd bf
       -0.5 -0.45999999999999996
000070 e1 7a 14 ae 47 e1 da bf 52 b8 1e 85 eb 51 d8 bf
       -0.42 -0.38
000080 c2 f5 28 5c 8f c2 d5 bf 33 33 33 33 33 33 d3 bf
       -0.33999999999999997 -0.3
000090 a4 70 3d 0a d7 a3 d0 bf 28 5c 8f c2 f5 28 cc bf
       -0.26 -0.21999999999999997
0000a0 0a d7 a3 70 3d 0a c7 bf ec 51 b8 1e 85 eb c1 bf
       -0.18 -0.14
0000b0 98 99 99 99 99 99 b9 bf b8 1e 85 eb 51 b8 ae bf
       -0.09999999999999998 -0.06
0000c0 80 14 ae 47 e1 7a 94 bf 80 14 ae 47 e1 7a 94 3f
       -0.020000000000000018 0.020000000000000018
0000d0 c0 1e 85 eb 51 b8 ae 3f a0 99 99 99 99 99 b9 3f
       0.06000000000000005 0.10000000000000009
0000e0 ec 51 b8 1e 85 eb c1 3f 08 d7 a3 70 3d 0a c7 3f
       0.14 0.17999999999999994
0000f0 28 5c 8f c2 f5 28 cc 3f a4 70 3d 0a d7 a3 d0 3f
       0.21999999999999997 0.26
000100 34 33 33 33 33 33 d3 3f c4 f5 28 5c 8f c2 d5 3f
       0.30000000000000004 0.3400000000000001
000110 54 b8 1e 85 eb 51 d8 3f e2 7a 14 ae 47 e1 da 3f
       0.3800000000000001 0.42000000000000004
000120 70 3d 0a d7 a3 70 dd 3f 00 00 00 00 00 00 e0 3f
       0.45999999999999996 0.5
000130 48 e1 7a 14 ae 47 e1 3f 90 c2 f5 28 5c 8f e2 3f
       0.54 0.5800000000000001
000140 d8 a3 70 3d 0a d7 e3 3f 1f 85 eb 51 b8 1e e5 3f
       0.6200000000000001 0.66
000150 66 66 66 66 66 66 e6 3f ae 47 e1 7a 14 ae e7 3f
       0.7 0.74
000160 f6 28 5c 8f c2 f5 e8 3f 3e 0a d7 a3 70 3d ea 3f
       0.78 0.8200000000000001
000170 86 eb 51 b8 1e 85 eb 3f cd cc cc cc cc cc ec 3f
       0.8600000000000001 0.9
000180 14 ae 47 e1 7a 14 ee 3f 5c 8f c2 f5 28 5c ef 3f
       0.94 0.98
